rahul@rahul-HP:~/Desktop/PESU/PESU-5THSEM/AI/ESA-LAB/New/day1-Akhil-v1$ python3 train_val_model.py 
Using TensorFlow backend.
Found 2068 images belonging to 20 classes.
Found 267 images belonging to 20 classes.
20
XXXXXXXXXXXXXXXXXXXXXXXXx
_________________________________________________________________
Layer (type)                 Output Shape              Param #   
=================================================================
conv2d_1 (Conv2D)            (None, 126, 126, 32)      320       
_________________________________________________________________
zero_padding2d_1 (ZeroPaddin (None, 128, 128, 32)      0         
_________________________________________________________________
batch_normalization_1 (Batch (None, 128, 128, 32)      128       
_________________________________________________________________
p_re_lu_1 (PReLU)            (None, 128, 128, 32)      524288    
_________________________________________________________________
conv2d_2 (Conv2D)            (None, 126, 126, 32)      9248      
_________________________________________________________________
zero_padding2d_2 (ZeroPaddin (None, 128, 128, 32)      0         
_________________________________________________________________
batch_normalization_2 (Batch (None, 128, 128, 32)      128       
_________________________________________________________________
p_re_lu_2 (PReLU)            (None, 128, 128, 32)      524288    
_________________________________________________________________
max_pooling2d_1 (MaxPooling2 (None, 64, 64, 32)        0         
_________________________________________________________________
conv2d_3 (Conv2D)            (None, 62, 62, 64)        18496     
_________________________________________________________________
zero_padding2d_3 (ZeroPaddin (None, 64, 64, 64)        0         
_________________________________________________________________
batch_normalization_3 (Batch (None, 64, 64, 64)        256       
_________________________________________________________________
p_re_lu_3 (PReLU)            (None, 64, 64, 64)        262144    
_________________________________________________________________
conv2d_4 (Conv2D)            (None, 62, 62, 64)        36928     
_________________________________________________________________
zero_padding2d_4 (ZeroPaddin (None, 64, 64, 64)        0         
_________________________________________________________________
batch_normalization_4 (Batch (None, 64, 64, 64)        256       
_________________________________________________________________
p_re_lu_4 (PReLU)            (None, 64, 64, 64)        262144    
_________________________________________________________________
max_pooling2d_2 (MaxPooling2 (None, 32, 32, 64)        0         
_________________________________________________________________
conv2d_5 (Conv2D)            (None, 30, 30, 128)       73856     
_________________________________________________________________
zero_padding2d_5 (ZeroPaddin (None, 32, 32, 128)       0         
_________________________________________________________________
batch_normalization_5 (Batch (None, 32, 32, 128)       512       
_________________________________________________________________
p_re_lu_5 (PReLU)            (None, 32, 32, 128)       131072    
_________________________________________________________________
conv2d_6 (Conv2D)            (None, 30, 30, 128)       147584    
_________________________________________________________________
zero_padding2d_6 (ZeroPaddin (None, 32, 32, 128)       0         
_________________________________________________________________
batch_normalization_6 (Batch (None, 32, 32, 128)       512       
_________________________________________________________________
p_re_lu_6 (PReLU)            (None, 32, 32, 128)       131072    
_________________________________________________________________
max_pooling2d_3 (MaxPooling2 (None, 16, 16, 128)       0         
_________________________________________________________________
conv2d_7 (Conv2D)            (None, 14, 14, 256)       295168    
_________________________________________________________________
zero_padding2d_7 (ZeroPaddin (None, 16, 16, 256)       0         
_________________________________________________________________
batch_normalization_7 (Batch (None, 16, 16, 256)       1024      
_________________________________________________________________
p_re_lu_7 (PReLU)            (None, 16, 16, 256)       65536     
_________________________________________________________________
conv2d_8 (Conv2D)            (None, 14, 14, 256)       590080    
_________________________________________________________________
zero_padding2d_8 (ZeroPaddin (None, 16, 16, 256)       0         
_________________________________________________________________
batch_normalization_8 (Batch (None, 16, 16, 256)       1024      
_________________________________________________________________
p_re_lu_8 (PReLU)            (None, 16, 16, 256)       65536     
_________________________________________________________________
max_pooling2d_4 (MaxPooling2 (None, 8, 8, 256)         0         
_________________________________________________________________
conv2d_9 (Conv2D)            (None, 6, 6, 512)         1180160   
_________________________________________________________________
zero_padding2d_9 (ZeroPaddin (None, 8, 8, 512)         0         
_________________________________________________________________
batch_normalization_9 (Batch (None, 8, 8, 512)         2048      
_________________________________________________________________
p_re_lu_9 (PReLU)            (None, 8, 8, 512)         32768     
_________________________________________________________________
conv2d_10 (Conv2D)           (None, 6, 6, 512)         2359808   
_________________________________________________________________
zero_padding2d_10 (ZeroPaddi (None, 8, 8, 512)         0         
_________________________________________________________________
batch_normalization_10 (Batc (None, 8, 8, 512)         2048      
_________________________________________________________________
p_re_lu_10 (PReLU)           (None, 8, 8, 512)         32768     
_________________________________________________________________
max_pooling2d_5 (MaxPooling2 (None, 4, 4, 512)         0         
_________________________________________________________________
conv2d_11 (Conv2D)           (None, 2, 2, 1028)        4738052   
_________________________________________________________________
zero_padding2d_11 (ZeroPaddi (None, 4, 4, 1028)        0         
_________________________________________________________________
batch_normalization_11 (Batc (None, 4, 4, 1028)        4112      
_________________________________________________________________
p_re_lu_11 (PReLU)           (None, 4, 4, 1028)        16448     
_________________________________________________________________
conv2d_12 (Conv2D)           (None, 2, 2, 1028)        9512084   
_________________________________________________________________
zero_padding2d_12 (ZeroPaddi (None, 4, 4, 1028)        0         
_________________________________________________________________
batch_normalization_12 (Batc (None, 4, 4, 1028)        4112      
_________________________________________________________________
p_re_lu_12 (PReLU)           (None, 4, 4, 1028)        16448     
_________________________________________________________________
average_pooling2d_1 (Average (None, 2, 2, 1028)        0         
_________________________________________________________________
flatten_1 (Flatten)          (None, 4112)              0         
_________________________________________________________________
dense_1 (Dense)              (None, 20)                82260     
_________________________________________________________________
activation_1 (Activation)    (None, 20)                0         
=================================================================
Total params: 21,124,716
Trainable params: 21,116,636
Non-trainable params: 8,080
_________________________________________________________________
None
XXXXXXXXXXXXXXXXXXXXXXXXx
train_val_model.py:91: UserWarning: The semantics of the Keras 2 argument `steps_per_epoch` is not the same as the Keras 1 argument `samples_per_epoch`. `steps_per_epoch` is the number of batches to draw from the generator at each epoch. Basically steps_per_epoch = samples_per_epoch/batch_size. Similarly `nb_val_samples`->`validation_steps` and `val_samples`->`steps` arguments have changed. Update your method calls accordingly.
…
